models/CryptoSoothersayer_Pi_0_57-70.pt (torch, 857673 bytes, 18 tensors)

layer_1.weight f4 [32, 18]
-0.0032525004 -0.11599052 0.22223277 0.1520301 -0.065496035 -0.20738025 -0.19669193 -0.033488482
0.17404738 0.15947485 0.05277078 -0.19454072 0.1919317 0.020609556 -0.2316468 0.128139
-0.14488435 -0.11401984 -0.070811 -0.1435056 -0.00899765 0.16244179 -0.089219004 -0.20152867
-0.2140598 -0.190081 -0.020843247 0.024745202 0.07683165 -0.06275413 -0.23297216 -0.1279845
0.19939259 0.16983919 0.19587858 -0.16611975 0.36787313 -0.06167513 0.29023862 0.046656527
0.26903445 0.23809321 0.06924591 0.5930039 0.5955359 -0.01494068 0.21561217 -0.14453848
-0.11257756 -0.5442705 -0.6006788 -0.5567598 -0.35872027 -0.32396337 -0.25749856 0.06783371
-0.10254697 -0.021685045 -0.0817664 -0.27937654 0.18507704 -0.10186576 0.124631904 -0.024397323
-0.2374343 -0.30531147 -0.06656991 -0.08798885 -0.20411815 -0.29736128 -0.0106197335 -0.24205689
-0.33282098 0.015657442 -0.052750107 -0.14855841 -0.10371359 0.18446645 -0.056726635 -0.6767071
-0.47311166 -0.38583332 -0.253703 -0.0796188 -0.24686852 0.1174701 0.23336135 0.55364347
0.3800679 0.2762507 0.11016883 -0.22161038 0.06860698 -0.11377797 -0.14510334 -0.0055429568
0.040581036 0.032564905 0.20226596 0.12722784 -0.18147027 -0.21656293 -0.20014848 0.20857014
0.17411931 0.03743587 -0.13205387 0.17989632 0.4115924 0.02577281 -0.026948195 -0.024635445
0.0765166 -0.23942882 0.053005222 0.16036144 0.18890314 0.27636957 -0.035965696 -0.0013459678
0.2188163 0.09519046 -0.48856556 -0.4993745 -0.6635935 -0.4120021 -0.07785248 -0.19263428
-0.1117676 -0.17463008 -0.20929769 -0.1708728 0.0828051 -0.2326357 0.21370228 -0.07324147
0.07121663 0.15625834 -0.077232726 0.12022282 0.038925536 0.16651805 -0.003843933 0.17232788
0.1049945 -0.09388206 0.09487828 0.17402828 -0.17965536 -0.19501041 0.08980783 -0.21894637
0.086611554 0.10560801 -0.06530425 -0.13177344 0.117070995 0.09129175 0.018800844 0.18961507
0.040259823 0.090515 -0.19509234 0.15481645 0.043289956 -0.075962305 -0.098190606 -0.10887469
-0.114738196 -0.056069836 -0.08512573 0.021808831 -0.12917967 -0.22676632 -0.06315326 0.15825656
-0.12983854 0.085911684 -0.09185838 -0.106880896 0.0044691116 -0.14516577 -0.21171322 0.14999147
0.14032102 -0.011223116 -0.19675091 0.20514624 -0.16613394 -0.14392823 -0.22162676 -0.056723703
-0.04657592 0.13699797 -0.21804191 -0.23378177 0.024656469 -0.06555903 0.1677113 -0.07216004
0.17013946 -0.0649672 -0.21681446 0.0300543 -0.2016203 0.19802786 0.11931158 0.08893836
0.12528466 -0.062471632 0.091329075 -0.1882643 0.065775044 -0.17163374 -0.17506905 -0.0039080805
-0.004119431 0.07573132 0.12553567 0.15691571 -0.15867348 -0.2857622 0.057040617 -0.0902435
0.17572507 -0.06328945 0.13028781 0.030274302 0.12573455 0.014349304 -0.1913381 0.1285162
-0.11581481 0.06918545 -0.08060003 0.058262818 0.11829935 -0.23352885 -0.107378185 -0.24218337
0.15302287 -0.14957634 0.05395091 0.08793586 0.22205253 -0.03720949 0.18144208 -0.092626065
-0.18834147 0.056880303 0.13612235 -0.22143826 -0.37589905 -0.08472517 -0.06749893 0.081320934
00000000: e727 55bb 708c edbd fd90 633e c7ad 1b3e
00000010: c922 86bd 7d5b 54be 9c69 49be 382b 09bd
00000020: 7a39 323e 604d 233e 2c26 583d af35 47be
00000030: be89 443e 5fd5 a83c d234 6dbe df36 033e
00000040: 905c 14be 3c83 e9bd 5c05 91bd 22f3 12be
00000050: e16a 13bc 2457 263e 74b8 b6bd 885d 4ebe
00000060: 7e32 5bbe 98a4 42be 75bf aabc 73b6 ca3c
00000070: ea59 9d3d 3d85 80bd 4190 6ebe 5e0e 03be
00000080: 922d 4c3e 53ea 2d3e 6594 483e 4c1b 2abe
00000090: de59 bc3e 109f 7cbd 289a 943e ea1a 3f3d
000000a0: e2be 893e b5ce 733e cdd0 8d3d 1bcf 173f
000000b0: 0a75 183f c1c9 74bc 70c9 5c3e e501 14be
000000c0: 108f e6bd 5055 0bbf 16c6 19bf cf87 0ebf
000000d0: 2faa b7be 87de a5be dad6 83be 66ec 8a3d
000000e0: 2504 d2bd d6a4 b1bc 2475 a7bd 710a 8fbe
000000f0: d684 3d3e ff9e d0bd 033f ff3d e5dc c7bc
00000100: fa21 73be c951 9cbe ce55 88bd 8033 b4bd
00000110: 5904 51be bd3f 98be 64fe 2dbc c3dd 77be
00000120: 8367 aabe 0944 803c 7f10 58bd b21f 18be
00000130: ca67 d4bd c6e4 3c3e 305a 68bd ad3c 2dbf
00000140: b13b f2be f28b c5be 5ce5 81be 2e0f a3bd
00000150: 1acb 7cbe 2a94 f03d 47f6 6e3e 94bb 0d3f
00000160: 4398 c23e bb70 8d3e 32a0 e13d d5ed 62be
00000170: d181 8c3d 6d04 e9bd f895 14be b1a1 b5bb
00000180: 4d38 263d c762 053d cf1e 4f3e 0448 023e
00000190: 58d3 39be acc2 5dbe b9f3 4cbe 6993 553e
000001a0: 554c 323e 5b56 193d 2139 07be be36 383e
000001b0: 3dbc d23e 8021 d33c 76c2 dcbc 46d0 c9bc
000001c0: bcb4 9c3d d42c 75be 011c 593d ca35 243e
000001d0: d36f 413e 5080 8d3e c450 13bd 2f6b b0ba
000001e0: 6111 603e 37f3 c23d 4425 fabe 04ae ffbe
000001f0: 43e1 29bf f0f1 d2be 1f71 9fbd ec41 45be
00000200: 69e6 e4bd 3ad2 32be 2252 56be 47f9 2ebe
00000210: b895 a93d 0e38 6ebe c5d4 5a3e a0ff 95bd
00000220: 06da 913d 3002 203e 312c 9ebd 6237 f63d
00000230: 6270 1f3d b583 2a3e 7fea 7bbb b876 303e
00000240: 5b07 d73d 3d45 c0bd 8b4f c23d 7834 323e
00000250: 93f7 37be cfb0 47be 2bed b73d 7a33 60be
00000260: 6661 b13d 0349 d83d 3cbe 85bd 9eef 06be
00000270: ebc2 ef3d 2bf7 ba3d 3a04 9a3c 742a 423e
00000280: 7ce7 243d ee5f b93d 49c6 47be 3488 1e3e
00000290: cf50 313d 2092 9bbd 2818 c9bd b2f9 debd
000002a0: dcfb eabd 7ca9 65bd 6656 aebd 6fa8 b23c
000002b0: ad47 04be 6e35 68be 7f56 81bd 020e 223e
000002c0: 65f4 04be 77f2 af3d 3f20 bcbd 5fe4 dabd
000002d0: a071 923b 56a6 14be 5acb 58be 5d97 193e
000002e0: 50b0 0f3e 29e1 37bc 1279 49be db11 523e
000002f0: 041f 2abe ec61 13be 20f2 62be 1d57 68bd
00000300: 64c6 3ebd 3249 0c3e 6146 5fbe 7d64 6fbe
00000310: 5dfc c93c d043 86bd 83bc 2b3e a5c8 93bd
00000320: 0a39 2e3e 860d 85bd 9c04 5ebe 6f34 f63c
00000330: 8d75 4ebe d1c7 4a3e a159 f43d 5125 b63d
00000340: 9f4a 003e 41e2 7fbd bd0a bb3d 5bc8 40be
00000350: 11b5 863d c1c0 2fbe 4d45 33be 5b0f 80bb
00000360: 4bfc 86bb 0619 9b3d 6c8c 003e 83ae 203e
00000370: 4d7b 22be 6c4f 92be 6ca3 693d 96d1 b8bd
00000380: 46f1 333e e69d 81bd 2b6a 053e d001 f83c
00000390: 8fc0 003e 5819 6b3c 23ee 43be c099 033e
000003a0: 5130 edbd 1ab1 8d3d a111 a5bd fea4 6e3d
000003b0: ee46 f23d 3022 6fbe 18e9 dbbd ebfe 77be
000003c0: 07b2 1c3e 8a2a 19be a1fb 5c3d b717 b43d
000003d0: bd61 633e fa68 18bd f4cb 393e bcb2 bdbd
000003e0: 96dc 40be 52fb 683d a863 0b3e b6c0 62be
000003f0: d775 c0be 6484 adbd e13c 8abd 978b a63d

layer_1.bias f4 [32]
-0.024219884 0.017575264 -0.19731273 0.11763152 0.09782634 -0.20976937 0.03349396 -0.10658011
-0.14330466 -0.035919793 -0.20333949 -0.15338573 -0.072763294 -0.08197896 0.16914505 0.015098041
0.34979412 -0.06018061 -0.12965065 0.2436922 0.004977157 0.17539187 -0.10526625 -0.021506498
-0.10367876 0.22013439 -0.24462128 0.07704313 0.20514868 -0.15581922 0.18031251 0.2837389
00000000: c768 c6bc 00fa 8f3c 590c 4abe cbe8 f03d
00000010: 2d59 c83d c8cd 56be f630 093d ac46 dabd
00000020: 75be 12be a220 13bd 3a38 50be 2611 1dbe
00000030: ec04 95bd 96e4 a7bd 5c34 2d3e c65d 773c
00000040: 3718 b33e f17f 76bd 24c3 04be 738a 793e
00000050: 6b17 a33b ed99 333e d595 d7bd 652e b0bc
00000060: 8855 d4bd e96a 613e 007e 7abe cac8 9d3d
00000070: 7f12 523e 138f 1fbe d8a3 383e 3a46 913e

layer_2.weight f4 [64, 32]
0.07800627 -0.067735545 -0.41056952 -0.115932204 -0.15943827 -0.13322437 0.25896138 0.106438555
-0.18063714 -0.091647014 -0.060685538 -0.0646806 -0.053876054 0.09231125 -0.016016467 -0.12871987
-0.25018784 -0.29615974 -0.30946025 -0.6849424 -0.87665933 -0.09856183 0.14352149 0.100383855
0.13588178 -0.81339186 0.073830344 -0.42392957 0.39357677 -0.09487272 -1.1555517 -0.45646438
0.0457358 0.10663306 0.12196608 0.15532762 -0.50583607 -0.16816954 0.02974854 0.13807061
0.08353658 0.14267899 -0.032979213 0.006970267 0.067672715 -0.08507478 -0.26329595 0.08408808
-0.76491356 -0.0052226745 0.14926013 -0.36182746 -0.079778984 -0.0017037294 0.39621 -0.01656771
-0.12299174 0.058962017 0.39302936 0.08903255 -0.32995358 -0.14806962 -0.49726024 -0.91533136
-0.15805605 0.14060333 -0.018121995 -0.08274751 -0.33221304 0.033412207 0.15633306 0.08017656
0.12684365 0.121837266 -0.14730452 0.16464147 -0.2094757 -0.15528321 -0.020464474 0.044098984
-0.722103 0.19729988 0.04537043 -0.2636935 -0.0024538327 0.007486223 0.39025372 -0.0919749
-0.013513561 0.048426595 0.10231275 0.13297665 -0.25937515 -0.011994285 -0.26037633 -0.54134583
-0.12899531 -0.022530861 -0.66572446 0.11999807 0.0329172 -0.14119668 -0.3668872 -0.0017159457
-0.053491693 0.10113269 0.08367527 -0.15395997 -0.09569328 -0.1623246 -0.15109415 -0.14013728
-0.00045326122 -0.23953295 0.9736795 -0.108869985 -0.08439271 0.5476757 -0.9513555 -0.10962126
-0.033867314 0.09704497 -0.4483856 1.1155454 0.02964712 -0.40088776 0.32584983 -0.040493686
-0.043466024 -0.07082702 0.34494516 -0.05592654 -0.33796442 -0.17617571 0.075548016 0.12202045
-0.045976046 1.957721e-05 -0.16272247 -0.07446452 0.07422126 -0.13097088 -0.64173543 -0.026033306
-1.003564 0.48364797 -0.22636709 -0.54569936 -0.18044676 -0.2579502 -0.044768333 0.12261334
-0.14442672 -0.07784128 0.5701247 0.020050714 -0.7837416 -0.08330012 -0.55331373 -0.74630624
-0.16709651 0.1609212 -0.043945864 0.06972621 -0.037183277 -0.032341026 -0.085255146 0.17220876
-0.16331926 -0.037921667 -0.13695496 0.055063087 -0.017667811 0.045608137 0.06633644 0.15450177
-0.030273154 -0.08084558 0.04937107 0.16685556 -0.018211316 -0.14765394 -0.17271453 -0.15419357
-0.05530834 -0.11031798 0.13985133 -0.02173671 -0.113309205 0.0449423 -0.04848468 -0.006985334
-0.098523796 -0.07971476 0.14730965 -0.08429654 -0.117218114 -0.029241905 -0.060573597 -0.10979163
-0.13821293 0.1696269 0.1454421 -0.15493472 0.1521421 -0.14120996 -0.11409246 -0.16200045
-0.0044411607 -0.0859107 -0.030039765 -0.08761451 0.15876506 0.00485675 -0.08119986 -0.15430818
-0.15655766 0.07177587 -0.016122939 -0.06891235 0.120336264 0.018816186 -0.09606303 -0.11302065
0.0026765356 0.0907614 0.09162441 0.10423971 -0.27021188 -0.072985336 0.06764237 -0.17429203
0.041320555 0.019879615 -0.09188059 0.16039996 -0.2514305 0.16570301 -0.25922865 0.15971835
-0.7337937 0.17772633 0.05866033 -0.46468857 -0.071587935 -0.31598812 0.17998484 0.08824609
0.01878736 0.06623669 0.097732 -0.08039876 -0.41810006 0.2560289 -0.5103937 -0.703063
00000000: c0c1 9f3d efb8 8abd 2b36 d2be dd6d edbd
00000010: c943 23be f86b 08be 9696 843e 75fc d93d
00000020: f1f8 38be 6eb1 bbbd 6691 78bd 4377 84bd
00000030: 23ad 5cbd ae0d bd3d f734 83bc 24cf 03be
00000040: 9f18 80be 40a2 97be 9371 9ebe 6358 2fbf
00000050: bf6c 60bf c9da c9bd 4cf7 123e 0d96 cd3d
00000060: 9824 0b3e 733a 50bf 5d34 973d 4c0d d9be
00000070: e582 c93e a14c c2bd 1ee9 93bf b3b5 e9be
00000080: 7655 3b3d 6f62 da3d 5ac9 f93d 340e 1f3e
00000090: 797e 01bf a334 2cbe 36b3 f33c 6262 0d3e
000000a0: 3a15 ab3d 711a 123e 3615 07bd d666 e43b
000000b0: fe97 8a3d b03b aebd bace 86be 5f36 ac3d
000000c0: 60d1 43bf f822 abbb a6d7 183e 7341 b9be
000000d0: 2a63 a3bd ac4f dfba 0adc ca3e 02b9 87bc
000000e0: 18e3 fbbd 2882 713d 253b c93e b356 b63d
000000f0: adef a8be 909f 17be e598 febe 2853 6abf
00000100: 72d9 21be 52fa 0f3e 9474 94bc 8777 a9bd
00000110: d417 aabe 3ddb 083d c615 203e 9c33 a43d
00000120: 4de3 013e d185 f93d ffd6 16be c697 283e
00000130: cc80 56be 9002 1fbe 1da5 a7bc 23a1 343d
00000140: bedb 38bf fb08 4a3e 58d6 393d d602 87be
00000150: 7bd0 20bb fd4e f53b 56cf c73e 565d bcbd
00000160: fc67 5dbc f75a 463d 5989 d13d 082b 083e
00000170: d2cc 84be ad83 44bc 0c50 85be a495 0abf
00000180: 5917 04be a492 b8bc eb6c 2abf 8cc1 f53d
00000190: 30d4 063d dd95 10be a4d8 bbbe 95e9 e0ba
000001a0: 1b1a 5bbd a81e cf3d f15d ab3d afa7 1dbe
000001b0: d7fa c3bd 6c38 26be 6db8 1abe 2680 0fbe
000001c0: b1a3 edb9 2048 75be 0f43 793f 3af7 debd
000001d0: 16d6 acbd 7a34 0c3f 098c 73bf 1c81 e0bd
000001e0: 74b8 0abd 83bf c63d cc92 e5be 31ca 8e3f
000001f0: 84de f23c 2941 cdbe cad5 a63e b5dc 25bd
00000200: 6e09 32bd c20d 91bd a79c b03e 3a13 65bd
00000210: ac09 adbe 6867 34be ebb8 9a3d dce5 f93d
00000220: 6151 3cbd bd39 a437 b8a0 26be db80 98bd
00000230: 5101 983d 3b1d 06be c648 24bf cd43 d5bc
00000240: c974 80bf b5a0 f73e c6cc 67be f4b2 0bbf
00000250: 09c7 38be 0c12 84be 005f 37bd b41c fb3d
00000260: 99e4 13be 406b 9fbd b1f3 113f 6541 a43c
00000270: 4aa3 48bf 4199 aabd f8a5 0dbf ed0d 3fbf
00000280: 591b 2bbe 87c8 243e 9400 34bd 9dcc 8e3d
00000290: 7e4d 18bd 0678 04bd 409a aebd 7e57 303e
000002a0: 2a3d 27be c053 1bbd ec3d 0cbe d589 613d
000002b0: 16bc 90bc 99cf 3a3d 66db 873d b635 1e3e
000002c0: 68ff f7bc 5e92 a5bd 5239 4a3d 2fdc 2a3e
000002d0: e62f 95bc 9832 17be 14dc 30be ebe4 1dbe
000002e0: ff8a 62bd 65ee e1bd 3035 0f3e 2f11 b2bc
000002f0: a80e e8bd 6b15 383d df97 46bd 3be5 e4bb
00000300: d8c6 c9bd 7e41 a3bd 57d8 163e aaa3 acbd
00000310: 0d10 f0bd b88c efbc 051c 78bd 6fda e0bd
00000320: b187 0dbe adb2 2d3e c6ee 143e 35a7 1ebe
00000330: 23cb 1b3e 5899 10be 4fa9 e9bd 72e3 25be
00000340: 2887 91bb f3f1 afbd f415 f6bc 3c6f b3bd
00000350: 4f93 223e 5f25 9f3b 1d4c a6bd f702 1ebe
00000360: a750 20be 3aff 923d 4114 84bc eb21 8dbd
00000370: dc72 f63d 6724 9a3c b2bc c4bd 5f77 e7bd
00000380: d168 2f3b 1de1 b93d 94a5 bb3d a17b d53d
00000390: 3659 8abe 5679 95bd 1588 8a3d 9c79 32be
000003a0: be3f 293d 93da a23c e42b bcbd e33f 243e
000003b0: 80bb 80be 0dae 293e 9eb9 84be 358d 233e
000003c0: e7d9 3bbf e4fd 353e d045 703d a9eb edbe
000003d0: b29c 92bd 32c9 a1be f24d 383e 5eba b43d
000003e0: f3e7 993c 1aa7 873d b727 c83d 1ba8 a4bd
000003f0: 3611 d6be 3816 833e 29a9 02bf f0fb 33bf

layer_2.bias f4 [64]
0.038440153 -0.106444195 -0.12998077 -0.22775403 0.008527007 -0.17559585 -0.08431799 -0.1260268
-0.08603989 -0.053193275 -0.020448728 0.06566047 -0.16161636 -0.0876874 -0.12791678 -0.056161325
-0.14925228 0.035747875 -0.16909614 0.098751135 -0.10420299 -0.14498048 -0.17275038 -0.13197936
-0.021527858 -0.17667525 -0.13461901 -0.120471306 -0.07104283 0.108511955 0.041541334 -0.06449452
-0.16459467 -0.08104071 -0.15549083 -0.115814984 -0.11151567 -0.15646988 -0.07565358 -0.08881514
-0.09391094 -0.13322146 -0.14250818 -0.14579278 -0.0120788915 -0.07112896 0.045833085 -0.19974801
-0.09979691 0.007903059 -0.12773418 -0.023025276 -0.14697894 -0.078886315 -0.06562696 -0.18036273
-0.21703076 -0.046003718 -0.05139452 0.01745376 0.07695295 -0.09497538 -0.15471607 -0.022544783
00000000: 6c73 1d3d 6aff d9bd ae19 05be 5a38 69be
00000010: dcb4 0b3c 66cf 33be e9ae acbd 2b0d 01be
00000020: af35 b0bd 31e1 59bd 1784 a7bc ff78 863d
00000030: c27e 25be 7495 b3bd 9efc 02be 6b09 66bd
00000040: 97d5 18be 5d6c 123d 8a27 2dbe 093e ca3d
00000050: 6168 d5bd c375 14be 7ae5 30be 9925 07be
00000060: 315b b0bc 5bea 34be 91d9 09be a9b9 f6bd
00000070: e77e 91bd 843b de3d 3f27 2a3d b415 84bd
00000080: 818b 28be acf8 a5bd fd38 1fbe 6830 edbd
00000090: 5462 e4bd a439 20be 44f0 9abd b6e4 b5bd
000000a0: 6154 c0bd 356b 08be aaed 11be b44a 15be
000000b0: 8be6 45bc 0fac 91bd 79bb 3b3d be8a 4cbe
000000c0: 5362 ccbd d57b 013c c0cc 02be 819f bcbc
000000d0: a681 16be 268f a1bd 6d67 86bd 02b1 38be
000000e0: 503d 5ebe 656e 3cbd 0f83 52bd 30fb 8e3c
000000f0: 8299 9d3d 7482 c2bd e46d 1ebe d6af b8bc

layer_3.weight f4 [128, 64]
0.20626219 0.09074116 0.10126188 0.03685588 0.033481248 0.034199685 -0.064475924 0.03893872
-0.08799597 0.03989952 -0.11631995 0.005473751 0.11596455 0.02372925 -0.051455542 -0.061826255
0.033048723 -0.13627821 -0.053791538 0.11662282 -0.110714436 -0.11159784 0.10480371 -0.021099022
-0.13984062 -0.11415949 -0.16072065 0.037407096 -0.020578444 0.03620899 -0.0030869956 -0.11276022
-0.046281308 0.011540232 -0.08789544 -0.12074755 -0.05969661 0.05218199 0.0813648 -0.10195562
0.1958625 -0.027723163 -0.09504316 0.042552784 0.031621024 -0.04026295 0.05719119 -0.087714136
0.083868325 -0.14588931 0.06611495 -0.12270016 -0.09509444 0.09919596 0.06956571 -0.019016182
-0.08477606 0.03830368 0.18850559 -0.027257647 0.046306632 0.060784824 0.075449005 0.09288847
-0.009349002 0.008611569 -0.032892976 0.09271773 -0.08629846 0.058486134 0.09947245 -0.06302032
0.05597535 -0.021148665 -0.081825525 -0.11574624 -0.023195207 -0.10238509 0.07239011 0.19861212
-0.078865655 -0.069552824 -0.099339455 -0.0007959954 -0.05337273 0.017769791 -0.11227915 0.019196918
-0.15068118 0.46210498 0.492868 0.036463533 0.069231145 -0.26554856 -0.19537832 0.13122602
0.6490667 0.32206878 -0.03606482 0.071353555 0.5496249 0.09744684 0.100438334 0.0016955482
0.0066321003 0.031150088 0.27928203 0.019612461 0.3454758 -0.033185743 0.22024274 0.025365725
0.019983027 0.2107594 -0.1488048 0.028630512 0.40818045 -0.01800994 0.1419503 -0.0902901
-0.11776341 -0.2885398 0.1493383 0.40050834 0.09529418 0.30015388 0.61777806 -0.08876206
-0.09980224 0.041420184 -0.04264557 0.050192077 -0.08427242 0.00918597 0.03435214 0.026799487
-0.0044322438 0.041265048 -0.074548595 0.05095526 -0.01725018 0.12384923 -0.048389986 0.02560417
-0.101767674 -0.11779591 -0.013127193 -0.034853034 0.02660979 0.050792303 0.12202291 -0.0142151145
-0.040965956 -0.08913426 -0.045419212 -0.09157401 -0.044296503 -0.105736196 -0.015252549 0.076941766
0.021618316 -0.09799018 -0.100656986 -0.05960065 -0.100152366 -0.0035136873 -0.053648397 0.07334961
-0.03876438 0.07258327 -0.07719557 0.09410635 -0.16336033 -0.09725373 -0.07076229 0.098823324
-0.022555202 -0.07302037 -0.12013647 0.04030351 -0.042266402 -0.12697853 0.07964795 -0.0770723
-0.0064923316 -0.07234903 0.071687855 -0.08476326 -0.11479044 -0.006031386 -0.11755189 0.020353869
0.034580745 -0.035911605 -0.0363658 -0.1787469 -0.029415049 -0.080506295 -0.069532305 0.0003494587
-0.042055175 -0.079480045 0.036565192 -0.0922982 0.036115948 -0.005725354 0.05822386 0.09116315
-0.12024864 0.03723508 0.04129213 0.079412885 0.065846935 0.049254745 0.11362089 0.16905782
-0.11319999 -0.014903434 -0.0773876 -0.03997236 -0.09032498 -0.06305797 0.008913162 -0.06539802
0.21407755 0.060876284 0.044537976 0.06102261 0.19722342 -0.027810054 0.04417714 -0.07097287
-0.089024365 -0.011414379 0.04421287 0.035158068 -0.14832838 -0.105035245 -0.065100044 -0.10383125
0.07911812 0.16120882 -0.052684825 0.062116034 0.07385391 -0.23144636 0.001139092 -0.0131420195
0.13052195 -0.14030826 -0.05833266 -0.05717618 -0.11598474 0.004552401 -0.110570446 -0.10005998
00000000: 6536 533e 80d6 b93d 6362 cf3d 31f6 163d
00000010: a223 093d f814 0c3d f40b 84bd 357e 1f3d
00000020: 3b37 b4bd ae6d 233d 2739 eebd 275d b33b
00000030: d27e ed3d d863 c23c 0cc3 52bd 873d 7dbd
00000040: 195e 073d 848c 0bbe 8454 5cbd f2d7 ee3d
00000050: 40be e2bd 698d e4bd 54a3 d63d dbd7 acbc
00000060: 6132 0fbe 73cc e9bd f493 24be 2f38 193d
00000070: 2094 a8bc e14f 143d 314f 4abb d5ee e6bd
00000080: 7891 3dbd 3e13 3d3c 8602 b4bd 7e4a f7bd
00000090: 6f84 74bd c8bc 553d 97a2 a63d 1cce d0bd
000000a0: 2e90 483e b01b e3bc fda5 c2bd d44b 2e3d
000000b0: 0c85 013d c3ea 24bd 4f41 6a3d 78a3 b3bd
000000c0: 28c3 ab3d 0264 15be 4667 873d 394a fbbd
000000d0: e0c0 c2bd 4027 cb3d 7878 8e3d d3c7 9bbc
000000e0: 129f adbd 52e4 1c3d 9c07 413e 6e4b dfbc
000000f0: 06ac 3d3d 82f9 783d 0285 9a3d 4f3c be3d
00000100: 8e2c 19bc 8a17 0d3c c9ba 06bd cbe2 bd3d
00000110: 3fbd b0bd 288f 6f3d 36b8 cb3d cc10 81bd
00000120: 6946 653d f73f adbc 2494 a7bd 5d0c edbd
00000130: e003 bebc 46af d1bd 4441 943d fa60 4b3e
00000140: 5184 a1bd b671 8ebd 7c72 cbbd 59aa 50ba
00000150: 5d9d 5abd f491 913c 9cf2 e5bd db42 9d3c
00000160: 2b4c 1abe 0699 ec3e 3259 fc3e c95a 153d
00000170: 0fc9 8d3d fbf5 87be 4111 48be 1d60 063e
00000180: 3c29 263f 33e6 a43e b4b8 13bd d021 923d
00000190: 38b4 0c3f 3592 c73d 9db2 cd3d 283d de3a
000001a0: 1752 d93b 782e ff3c 0efe 8e3e 50aa a03c
000001b0: 34e2 b03e c6ed 07bd 5087 613e c8cb cf3c
000001c0: 72b3 a33c 50d1 573e 4960 18be 898a ea3c
000001d0: 07fd d03e 9589 93bc 6b5b 113e 04ea b8bd
000001e0: f12d f1bd 7dbb 93be 24ec 183e 6e0f cd3e
000001f0: 9829 c33d c5ad 993e b426 1e3f e2c8 b5bd
00000200: 1e65 ccbd 36a8 293d 1fad 2ebd 3596 4d3d
00000210: 0597 acbd c080 163c d4b4 0c3d 998a db3c
00000220: 5b3c 91bb 8a05 293d efac 98bd 76b6 503d
00000230: 4050 8dbc aaa4 fd3d 9434 46bd d6bf d13c
00000240: 926b d0bd fb3e f1bd 7013 57bc 0ec2 0ebd
00000250: c6fc d93c 970b 503d 26e7 f93d 83e6 68bc
00000260: ebcb 27bd 068c b6bd 7f09 3abd 288b bbbd
00000270: 4070 35bd 388c d8bd d4e5 79bc a593 9d3d
00000280: e518 b13c 13af c8bd 4025 cebd d01f 74bd
00000290: af1c cdbd e445 66bb 6cbe 5bbd 5238 963d
000002a0: 66c7 1ebd 8aa6 943d b618 9ebd d4ba c03d
000002b0: ee47 27be f72c c7bd d2eb 90bd e263 ca3d
000002c0: b0c5 b8bc b48b 95bd 1c0a f6bd 4b15 253d
000002d0: 891f 2dbd a906 02be 771e a33d 15d8 9dbd
000002e0: a0bd d4bb ba2b 94bd 15d1 923d 5c98 adbd
000002f0: 4017 ebbd efa2 c5bb 0cbf f0bd 28bd a63c
00000300: 8aa4 0d3d 0c18 13bd 4ef4 14bd 6d09 37be
00000310: d4f7 f0bc 7ce0 a4bd f466 8ebd 8e37 b739
00000320: 0c42 2cbd 6fc6 a2bd 62c5 153d d706 bdbd
00000330: 51ee 133d c09b bbbb 247c 6e3d bfb3 ba3d
00000340: eb44 f6bd d083 183d f021 293d 39a3 a23d
00000350: c2da 863d 58bf 493d 12b2 e83d 7e1d 2d3e
00000360: 65d5 e7bd 882d 74bc 647d 9ebd 0fba 23bd
00000370: 4efc b8bd 8924 81bd 8308 123c 66ef 85bd
00000380: 2537 5b3e 6959 793d 746d 363d d8f2 793d
00000390: f0f4 493e e9d1 e3bc 17f3 343d 395a 91bd
000003a0: 6852 b6bd 6003 3bbc 8e18 353d e801 103d
000003b0: 65e3 17be b81c d7bd 2c53 85bd 7aa5 d4bd
000003c0: ae08 a23d ed13 253e 0bcc 57bd 626d 7e3d
000003d0: b840 973d 4600 6dbe 964d 953a a051 57bc
000003e0: 8ca7 053e f8ac 0fbe 3aee 6ebd 9231 6abd
000003f0: 6889 edbd 4f2c 953b c272 e2bd 3fec ccbd

layer_3.bias f4 [128]
-0.13321207 -0.2665995 -0.031259354 -0.23823495 -0.38729805 -0.33246845 0.040135592 -0.28724816
-0.1377546 -0.5147366 0.042266835 -0.19908623 -0.0120173665 -0.057481565 -0.25223672 -0.14560752
-0.26518664 -0.28505942 -0.024033433 -0.073638745 -0.33869714 -0.18999392 -0.090311505 -0.15836626
0.00062038726 -0.10171179 0.022088343 -0.44378936 -0.2898471 -0.023454813 -0.34326366 0.037096553
0.07534728 0.07582613 -0.24137175 -0.0034146172 -0.27201906 -0.06438713 -0.13011414 0.043449003
-0.012148583 -0.3271747 -0.26517442 -0.25982034 -0.23423305 -0.0017391386 -0.2514331 -0.38342196
-0.05493094 -0.20883697 0.012493923 -0.30160257 -0.081824 -0.121375635 -0.13259487 -0.3011819
-0.09648177 0.03148852 -0.3067953 -0.011392778 -0.24111444 0.058383692 -0.36956838 -0.0035819695
-0.13075763 -0.33408767 -0.016279941 -0.11097706 -0.28926513 -0.14346054 0.037715036 -0.08660639
-0.3601765 -0.16025059 0.0072519165 -0.1886617 -0.46301624 -0.014513006 -0.17585672 -0.49624255
-0.20093189 -0.1723941 -0.028191 -0.122333884 -0.18234238 -0.12013255 -0.14796647 -0.22529034
0.025768785 -0.44252214 -0.2186174 -0.14153132 -0.09386402 -0.4625383 -0.2331184 0.008138029
-0.08834687 -0.3146575 -0.15165924 -0.23011802 -0.008319465 -0.37866315 -0.33960488 -0.066642396
-0.06983955 -0.13912264 -0.08054965 -0.10630558 -0.37898207 -0.306642 -0.26240754 -0.07436305
-0.3484654 -0.16738832 -0.10807097 -0.25223622 -0.10772661 -0.005790401 -0.3274033 -0.15230872
0.021017183 -0.28978372 -0.1436388 -0.185091 0.019619768 -0.33251843 -0.078933895 0.07359094
00000000: bf68 08be bb7f 88be cf09 00bd ddf3 73be
00000010: ee4b c6be 4e39 aabe 3865 243d 3112 93be
00000020: 8b0f 0dbe c7c5 03bf fd1f 2d3d 43dd 4bbe
00000030: 7de4 44bc ca71 6bbd 2c25 81be 231a 15be
00000040: 8bc6 87be 4ff3 91be c3e1 c4bc e9cf 96bd
00000050: b669 adbe c48d 42be 3df5 b8bd c42a 22be
00000060: 7ca1 223a 454e d0bd 9df2 b43c 5c38 e3be
00000070: d766 94be 4f24 c0bc 41c0 afbe 8ef2 173d
00000080: ad4f 9a3d bb4a 9b3d 282a 77be c5c7 5fbb
00000090: 1546 8bbe 66dd 83bd a43c 05be 95f7 313d
000000a0: da0a 47bc 7183 a7be f1c4 87be 2c07 85be
000000b0: cada 6fbe cff3 e3ba d7bb 80be e24f c4be
000000c0: 44ff 60bd 5cd9 55be 50b3 4c3c a76b 9abe
000000d0: 5793 a7bd ca93 f8bd f3c6 07be 8434 9abe
000000e0: 3c98 c5bd 1bfa 003d 4614 9dbe c6a8 3abc
000000f0: b4e6 76be bd23 6f3d 1138 bdbe 7abf 6abb
00000100: 54e5 05be 8a0d abbe 835d 85bc f147 e3bd
00000110: 8f1a 94be 52e7 12be 157b 1a3d b15e b1bd
00000120: 0e69 b8be bb18 24be 7ca1 ed3b 8830 41be
00000130: 7710 edbe f6c7 6dbc c913 34be 8113 febe
00000140: 17c1 4dbe 1488 30be d0f0 e6bc 308a fabd
00000150: f6b7 3abe 0e08 f6bd 8684 17be 83b2 66be
00000160: 0f19 d33c 4392 e2be 3ddd 5fbe 96ed 10be
00000170: c83b c0bd d2d1 ecbe 97b6 6ebe 5e55 053c
00000180: 34ef b4bd ca1a a1be 8f4c 1bbe 0fa4 6bbe
00000190: 5e4e 08bc 23e0 c1be b1e0 adbe cf7b 88bd
000001a0: 0a08 8fbd 2a76 0ebe 37f7 a4bd bdb6 d9bd
000001b0: f009 c2be 2e00 9dbe 485a 86be a84b 98bd
000001c0: 0f6a b2be d867 2bbe 5054 ddbd 1b25 81be
000001d0: c59f dcbd 67bd bdbb 68a1 a7be d1f6 1bbe
000001e0: 3a2c ac3c 885e 94be 0d16 13be 7f88 3dbe
000001f0: a3b9 a03c db3f aabe 18a8 a1bd d9b6 963d

layer_4.weight f4 [256, 128]
0.20330285 0.02692689 0.011855845 -0.008830457 0.11174815 0.025150176 -0.008615324 -0.07069353
-0.08217464 0.21588242 -0.14228565 -0.029127862 -0.116899006 0.05330831 -0.057793844 0.15056843
0.17455734 0.22246876 -0.009171398 -0.060768414 0.10516077 0.1840687 0.08368813 0.08120482
0.029501334 -0.063359685 0.26248908 0.114130385 0.10455735 -0.042997103 0.20503685 -0.009553636
-5.7617926e-05 0.097527295 0.039275486 0.0071217422 0.14915639 -0.012111484 0.08766117 -0.18639296
0.21380939 0.011526201 0.14759241 -0.028338807 0.048099432 -0.06006865 0.19151188 -0.029641474
0.035297237 0.1030964 0.1516522 -0.06214973 0.04475183 -0.048613187 0.14027719 0.11918742
0.04717794 -0.023860322 0.11429306 0.001571478 -0.016179446 -0.13903962 0.20419064 0.046943303
-0.062461693 -0.07487068 -0.06695109 0.081112675 0.17310709 0.09639813 -0.15479812 0.10964999
0.10882545 0.19629337 0.057792906 -0.062189285 0.04165043 -0.1522589 0.070190504 -0.02191562
0.21943457 -0.06510236 -0.20978 -0.05628956 -0.038290568 -0.0134272585 -0.013145149 0.058044594
0.016212886 -0.08704587 0.18122867 0.009827106 0.0154808955 -0.0003443665 0.25032187 -0.102595896
-0.043856863 0.20963494 -0.0742741 0.13815655 0.14517675 0.1835476 0.0871151 0.042796098
-0.032658402 -0.018369935 0.050712828 0.016471177 0.058345556 0.10738013 0.18256551 0.08444169
0.06559478 -0.011298597 -0.021020602 0.103055686 -0.061668392 0.10559671 0.34099585 -0.009185071
-0.035368938 0.1099567 -0.014471211 0.116347015 -0.14159195 0.10985064 -0.047189094 -0.08436219
0.16391875 -0.10720164 0.072343916 -0.042489517 0.16874595 0.13822234 0.15796298 -0.030333374
-0.033402685 0.22206132 0.10800077 -0.11261756 -0.16090582 0.109943196 0.3002915 0.25761563
0.07030529 0.09367565 -0.07710954 0.031483505 0.34605804 -0.11196405 0.08513184 0.035982724
-0.19201195 0.012595248 -0.2554396 -3.8408474e-05 0.14861658 -0.10764174 -0.03845476 -0.083290584
0.04330181 -0.006261805 -0.01794148 -0.046964265 -0.002204374 -0.18020749 0.029750712 -0.11192806
-0.0386233 0.46482912 -0.08747082 0.22142234 0.07012977 -0.14056918 0.0600038 0.057997826
-0.048743192 0.25880024 -0.18628258 0.06579628 -0.037680376 0.033416193 0.08819406 -0.013244716
-0.11744565 -0.10342518 0.23548098 -0.00203286 -0.005999802 -0.10868344 0.014055543 -0.06191232
-0.037165754 -0.019756557 -0.195064 -0.020846441 0.1544607 0.14210172 0.09417671 -0.106525004
-0.0059897634 0.24878287 0.06526222 0.068439305 0.012576979 -0.050279684 0.105522744 -0.059310656
-0.00979181 -0.0715756 0.024469191 0.053335235 -0.053486038 -0.020659069 -0.07232324 0.09910191
-0.084307715 -0.0033521918 0.18235292 0.077069916 0.021580756 0.23118299 0.079461545 -0.20639011
0.076455295 0.17412321 0.075308986 0.0002433689 -0.17673057 0.06784926 -0.010362284 -0.06461241
-0.034366604 0.03775899 0.02773995 -0.0034756293 0.16244048 0.01489057 -0.098439135 -0.031911813
-5.267177e-05 -0.054724418 -0.15442646 -0.043631367 0.0861646 0.28352058 0.2795352 0.1439958
-0.16945697 0.082249425 -0.09409886 -0.16503175 -0.0854421 -0.096737854 0.15500642 -0.028726172
00000000: 9f2e 503e c895 dc3c 053f 423c 9fad 10bc
00000010: 37dc e43d be07 ce3c 4a27 0dbc c5c7 90bd
00000020: 2d4b a8bd 4810 5d3e 54b3 11be 8e9d eebc
00000030: bf68 efbd d159 5a3d 3db9 6cbd 9c2e 1a3e
00000040: 29bf 323e dace 633e a243 16bc 4de8 78bd
00000050: 885e d73d 817c 3c3e af64 ab3d b64e a63d
00000060: c8ac f13c b9c2 81bd f864 863e 31bd e93d
00000070: 2a22 d63d bb1d 30bd 2ef5 513e db86 1cbc
00000080: c7aa 71b8 64bc c73d 55df 203d 815d e93b
00000090: 74bc 183e 3f6f 46bc b387 b33d ccdd 3ebe
000000a0: d9f0 5a3e 64d8 3c3c 7722 173e c926 e8bc
000000b0: e903 453d 8b0a 76bd b11b 443e add2 f2bc
000000c0: d693 103d 3524 d33d b74a 1b3e b790 7ebd
000000d0: b24d 373d 9f1e 47bd d3a4 0f3e 8918 f43d
000000e0: a83d 413d b976 c3bc 7b12 ea3d 0dfa cd3a
000000f0: c28a 84bc 6760 0ebe 5a17 513e 9f47 403d
00000100: d5d7 7fbd cd55 99bd a71d 89bd 671e a63d
00000110: fc42 313e 626c c53d 6683 1ebe 2d90 e03d
00000120: e1df de3d 2101 493e 41b8 6c3d 31ba 7ebd
00000130: a499 2a3d c2e9 1bbe 0ac0 8f3d 6388 b3bc
00000140: 75b3 603e 6354 85bd 91d0 56be e28f 66bd
00000150: 92d6 1cbd 01fe 5bbc c05e 57bc 2bc0 6d3d
00000160: e3d0 843c 1b45 b2bd 0294 393e df01 213c
00000170: 95a3 7d3c 178c b4b9 302a 803e cc1d d2bd
00000180: 41a3 33bd 8baa 563e 051d 98bd e978 0d3e
00000190: 37a9 143e e7f3 3b3e 6769 b23d f64a 2f3d
000001a0: d1c4 05bd 8c7c 96bc 41b8 4f3d 90ee 863c
000001b0: c0fb 6e3d 1dea db3d 74f2 3a3e c4ef ac3d
000001c0: 8e56 863d c01d 39bc 6633 acbc dc0e d33d
000001d0: ff97 7cbd 1743 d83d 0297 ae3e fb7c 16bc
000001e0: 05df 10bd fa30 e13d a818 6dbc 5847 ee3d
000001f0: 7bfd 10be 5ff9 e03d 5a49 41bd 15c6 acbd
00000200: 51da 273e 898c dbbd 0c29 943d 7d09 2ebd
00000210: bdcb 2c3e 288a 0d3e 0cc1 213e b27d f8bc
00000220: 41d1 08bd 0b64 633e 822f dd3d 09a4 e6bd
00000230: 7fc4 24be e629 e13d cfbf 993e 32e6 833e
00000240: 38fc 8f3d 05d9 bf3d 9beb 9dbd d9f4 003d
00000250: 852e b13e 684d e5bd 9a59 ae3d 9f62 133d
00000260: c89e 44be 4d5c 4e3c fbc8 82be c918 21b8
00000270: f22e 183e 4673 dcbd bd82 1dbd 4194 aabd
00000280: 3d5d 313d d42f cdbb 03fa 92bc 9a5d 40bd
00000290: 4277 10bb 5088 38be c4b7 f33c 8a3a e5bd
000002a0: 7733 1ebd 15fe ed3e e723 b3bd 8abc 623e
000002b0: 32a0 8f3d 5ef1 0fbe 8bc6 753d 218f 6d3d
000002c0: f1a6 47bd 7781 843e dcc0 3ebe 33c0 863d
000002d0: bd56 1abd 6bdf 083d 169f b43d 5e00 59bc
000002e0: 5887 f0bd 95d0 d3bd ed21 713e bb39 05bb
000002f0: fd99 c4bb 6c95 debd 3849 663c c697 7dbd
00000300: 1e3b 18bd 81d8 a1bc dbbe 47be 28c6 aabc
00000310: f22a 1e3e 1d83 113e b8df c03d c829 dabd
00000320: c745 c4bb f0c0 7e3e 33a8 853d e829 8c3d
00000330: ac0f 4e3c 12f2 4dbd 4f1c d83d bbef 72bd
00000340: d46d 20bc 3a96 92bd 9d73 c83c 0c76 5a3d
00000350: 2d14 5bbd 353d a9bc 351e 94bd f1f5 ca3d
00000360: 86a9 acbd 72b0 5bbb b9ba 3a3e d5d6 9d3d
00000370: 20ca b03c 3cbb 6c3e bcbc a23d ee57 53be
00000380: 9894 9c3d 5b4d 323e 993b 9a3d d730 7f39
00000390: dcf8 34be 8ef4 8a3d 92c6 29bc 8353 84bd
000003a0: ffc3 0cbd 2ca9 1a3d e43e e33c 62c7 63bb
000003b0: cc56 263e 94f7 733c 759a c9bd f6b5 02bd
000003c0: e2eb 5cb8 b626 60bd f821 1ebe ceb6 32bd
000003d0: 1177 b03d 9c29 913e 3d1f 8f3e a373 133e
000003e0: 2186 2dbe 6372 a83d e7b6 c0bd 15fe 28be
000003f0: 45fc aebd 7f1e c6bd 01ba 1e3e 2653 ebbc

layer_4.bias f4 [256]
-0.09429358 -0.19410636 -0.05077347 0.10986679 -0.025364684 -0.07628572 -0.102928005 -0.082398586
0.043764707 -0.2902892 -0.11280003 -0.08681806 -0.0762698 -0.3400758 -0.2069125 -0.18361901
-0.078287564 -0.07564586 -0.14391638 -0.2980164 -0.093536295 0.054186597 -0.09916124 -0.06543808
0.027166538 -0.2183999 -0.042997673 -0.32165495 -0.17718466 -0.123255976 -0.06702723 -0.86489975
-0.5672084 -0.0991244 -0.6229022 -0.6666035 -0.41599223 -0.13934733 -0.4321413 -0.17705269
-0.46233705 -0.55792624 -0.36434084 -0.17754796 -0.0070258994 -0.114219785 -0.12855263 -0.35444108
-0.11039628 -0.2712027 -0.2589515 -0.70288634 -0.030956896 -0.3108275 -0.06384914 -0.48810947
0.010979454 -0.29341835 -0.15764402 0.037227754 -0.17493388 -0.16661899 -0.33303168 -0.0650891
-0.10200588 -0.60782415 -0.2061606 -0.67389977 -0.15979908 -0.031843144 -0.05362415 -0.6081432
-0.74945503 -0.13761078 -0.050761703 -0.12303858 -0.67677647 -0.10284641 -0.08162582 -0.065449856
-0.063780755 -0.43691346 -0.09787183 -0.07339475 -0.21116324 -0.28180802 -0.12189777 0.061596606
-0.30708525 -0.23871846 0.073688224 -0.48481 -0.13742284 -0.106160335 -0.141934 -0.4779669
-0.05463977 -0.41964102 -0.06591856 -0.042573884 -0.30789506 -0.09432049 0.08713955 0.039918352
-0.2602003 -0.11423586 -0.2089025 -0.29377505 -0.076154426 -0.04179899 0.065765396 -0.052601762
-0.041511107 -0.54175544 -0.6764508 -0.0024635987 -0.17247146 -0.07119869 -0.08333785 -0.16381808
-0.16183425 0.044230077 -0.085922375 -0.39929798 -0.05941316 -0.30013657 -0.6519634 -0.11171611
-0.22583486 -0.0838055 0.059225027 -0.08314297 -0.65405273 -0.27646214 -0.0121931825 -0.15020312
-0.60431534 -0.075738795 -0.08710281 -0.21280098 -0.18374537 -0.6635389 0.17370036 -0.2427736
-0.33490953 -0.12052689 -0.7342251 0.097459614 0.014534721 -0.13008262 -0.41821444 -0.32837236
-0.39705065 -0.11265073 -0.040854204 0.015066773 -0.25698504 -0.13958268 0.005940215 -0.11430647
-0.037635133 -0.05621164 -0.43981165 -0.023141842 -0.3006694 -0.18486336 -0.42234194 -0.6427184
-0.067983665 -0.34470257 -0.42504594 -0.45949137 -0.12172933 -0.5697978 -0.13567398 -0.14132139
-0.22954246 0.14587386 -0.13712345 -0.043406047 -0.37314212 -0.54545015 -0.16547836 -0.42746714
-0.31874764 -0.50964224 -0.3477087 -0.18069847 -0.074172966 -0.13591032 -0.041631937 0.093368754
-0.13028377 -0.6636809 -0.29673404 -0.037287503 -0.13125159 -0.01789777 -0.1240774 -0.1026681
-0.30414867 -0.16135402 -0.14547381 -0.26712027 -0.20024501 -0.12774743 -0.7050177 -0.11679985
-0.058443584 -0.57326883 -0.41495797 -0.5832693 -0.10930896 -0.11703586 -0.23432663 -0.029023841
-0.23697238 -0.39417288 -0.20815271 -0.39368743 -0.06092922 0.04106169 -0.61341697 -0.114845514
-0.13099499 0.030170707 -0.2711971 0.055418644 -0.109614156 -0.5957749 -0.0516392 -0.15140007
-0.3863335 -0.24684821 -0.089473054 -0.31204918 -0.22919911 -0.08494297 -0.26214144 -0.11575578
-0.33821455 0.0653756 -0.10940638 -0.080465645 -0.16677001 -0.387455 0.053071737 -0.09382514
-0.55393374 -0.28008175 0.025099808 -0.17696519 -0.25084087 -0.6797311 -0.06389652 -0.12827252
00000000: fe1c c1bd d1c3 46be d8f7 4fbd d701 e13d
00000010: 99c9 cfbc b03b 9cbd ebcb d2bd 97c0 a8bd
00000020: 9f42 333d c9a0 94be b403 e7bd abcd b1bd
00000030: 5733 9cbd 6a1e aebe dfe0 53be 9f06 3cbe
00000040: 3b55 a0bd 37ec 9abd d15e 13be 9b95 98be
00000050: f58f bfbd c4f2 5d3d 0c15 cbbd 6604 86bd
00000060: 5c8c de3c 39a4 5fbe 541e 30bd f5af a4be
00000070: e56f 35be a16d fcbd 9345 89bd 126a 5dbf
00000080: 9234 11bf bc01 cbbd 8576 1fbf 87a6 2abf
00000090: effc d4be 11b1 0ebe a041 ddbe 4d4d 35be
000000a0: 71b7 ecbe 41d4 0ebf e28a babe 22cf 35be
000000b0: 8439 e6bb 10ec e9bd 4da3 03be 4d79 b5be
000000c0: 7217 e2bd 15db 8abe 4a95 84be 5cf0 33bf
000000d0: 5199 fdbc c824 9fbe 57c3 82bd 7ce9 f9be
000000e0: 2be3 333c ee3a 96be 6f6d 21be 217c 183d
000000f0: de21 33be 2b9e 2abe 2183 aabe 6f4d 85bd
00000100: 75e8 d0bd 5d9a 1bbf c41b 53be b284 2cbf
00000110: 5fa2 23be f56d 02bd ffa4 5bbd 46af 1bbf
00000120: 49dc 3fbf d7e9 0cbe 81eb 4fbd a7fb fbbd
00000130: 3941 2dbf 23a1 d2bd 702b a7bd 930a 86bd
00000140: 7c9f 82bd 1fb3 dfbe 0771 c8bd fd4f 96bd
00000150: 2d3b 58be 2449 90be 8aa5 f9bd b94c 7c3d
00000160: 473a 9dbe 9d72 74be dae9 963d 0439 f8be
00000170: 93b8 0cbe 976a d9bd 2657 11be 14b8 f4be
00000180: f4cd 5fbd 30db d6be 4f00 87bd f461 2ebd
00000190: 6ca4 9dbe 1a2b c1bd 3876 b23d 6d81 233d
000001a0: f938 85be 7ef4 e9bd 89ea 55be af69 96be
000001b0: daf6 9bbd 6b35 2bbd 02b0 863d f274 57bd
000001c0: 8d07 2abd 7cb0 0abf e12b 2dbf 5474 21bb
000001d0: 5c9c 30be 9ed0 91bd 09ad aabd edbf 27be
000001e0: e1b7 25be 992a 353d 12f8 afbd c970 ccbe
000001f0: 375b 73bd 80ab 99be 13e7 26bf 6acb e4bd
00000200: 4141 67be 38a2 abbd f195 723d dd46 aabd
00000210: 0070 27bf 728c 8dbe eac5 47bc d9ce 19be
00000220: 69b4 1abf f11c 9bbd f562 b2bd 80e8 59be
00000230: bf27 3cbe afdd 29bf 82de 313e a599 78be
00000240: 4379 abbe cdd6 f6bd 2df6 3bbf e898 c73d
00000250: 0a23 6e3c 6134 05be 3420 d6be 6c20 a8be
00000260: 394a cbbe 6db5 e6bd bd56 27bd a0da 763c
00000270: 8b93 83be c3ee 0ebe 23a6 c23b 8319 eabd
00000280: 4c27 1abd 2d3e 66bd fe2e e1be f693 bdbc
00000290: 57f1 99be d24c 3dbe 343d d8be 3189 24bf
000002a0: 053b 8bbd db7c b0be 9f9f d9be 7442 ebbe
000002b0: 3a4d f9bd 45de 11bf 1fee 0abe 8eb6 10be
000002c0: 2e0d 6bbe f55f 153e 176a 0cbe 8aca 31bd
000002d0: 7c0c bfbe 9fa2 0bbf 2973 29be f9dc dabe
000002e0: e432 a3be ea77 02bf e006 b2be 0509 39be
000002f0: ffe7 97bd 132c 0bbe 4086 2abd 1e38 bf3d
00000300: 1c69 05be fee6 29bf 86ed 97be c8ba 18bd
00000310: d166 06be 589e 92bc 4b1c febd a743 d2bd
00000320: 60b9 9bbe fd39 25be 16f7 14be fdc3 88be
00000330: 070d 4dbe 39d0 02be 0a7c 34bf c234 efbd
00000340: 8a62 6fbd bfc1 12bf 5f75 d4be 2351 15bf
00000350: 60dd dfbd 7fb0 efbd 52f3 6fbe 68c3 edbc
00000360: e3a8 72be 07d1 c9be fc25 55be 6691 c9be
00000370: eb90 79bd 4d30 283d e508 1dbf 2034 ebbd
00000380: 8d23 06be 8f28 f73c 59da 8abe a9fe 623d
00000390: 637d e0bd b484 18bf a083 53bd 9f08 1bbe
000003a0: 81cd c5be c7c5 7cbe a63d b7bd e9c4 9fbe
000003b0: 2cb3 6abe 94f6 adbd 6737 86be 5e11 edbd
000003c0: 752a adbe a4e3 853d 7410 e0bd 2ccb a4bd
000003d0: c2c5 2abe 8060 c6be c061 593d 6527 c0bd
000003e0: 9ace 0dbf e066 8fbe 1d9e cd3c 5d36 35be
000003f0: 376e 80be db02 2ebf 2edc 82bd df59 03be

layer_5.weight f4 [128, 256]
-0.07047443 0.1552326 0.021669231 0.22020091 -0.3507306 -0.3930112 -0.02546772 0.031625208
0.00994082 0.013370148 -0.31500056 0.027762042 0.00751968 -0.06829606 -0.13331991 -0.18174067
0.053244498 -0.033203512 -0.03198563 -0.2635423 0.025133012 0.18758652 -0.046716936 -0.042143457
-0.028711837 0.1056532 -0.08006241 0.037761178 0.119695924 0.015600328 -0.0672834 0.20632505
0.2260498 -0.062699564 0.14531174 0.23211041 -0.023906846 -0.0318887 -0.021367224 0.03868863
0.041324303 0.34454688 -0.0010149669 0.08613664 -0.023453811 0.060681928 -0.041785166 -0.058206666
0.016544744 -0.013504119 -0.021091616 0.04616146 -0.05183124 0.050614346 0.05147681 -0.015772082
-0.13471271 -0.264681 -0.010511118 0.22916453 0.13690154 -0.09283438 -0.16333458 0.069047846
0.0147101935 0.0280402 -0.05838053 0.13216828 -0.16026306 0.0456598 0.049069926 0.23027276
0.3675792 -0.024490185 -0.021462148 0.049166337 0.22579491 -0.08971109 0.014816648 -0.071075544
-0.14923477 0.16934393 -0.07394059 -0.017597111 0.09211739 0.13126129 -0.020088151 0.333514
-0.0016234408 0.0061037843 0.20640522 0.30197492 -0.309973 0.05178217 0.25834653 0.2308229
0.065610774 0.115627535 -0.09142862 -0.09098457 0.23267867 0.021178655 0.02770769 0.049374856
-0.038253732 0.07308911 -0.22466648 0.16050322 -0.064698935 -0.011419346 0.10030718 -0.7606055
-0.009881442 0.29572347 0.16164623 -0.67060775 -0.24807946 -0.048804186 -0.04079936 0.106234424
-0.011862596 -0.27297798 0.008937427 0.2660049 -0.027288424 0.34920537 0.28558555 -0.05044524
0.0023666755 0.1058578 -0.42865598 -0.3620739 0.057701636 0.09611732 -0.6312172 0.17683646
0.15914741 -0.008423429 0.0128954705 0.035891637 0.029810702 0.047042795 0.042242292 0.06851438
-0.024775522 -0.02448079 0.03644408 0.6031645 -0.028375527 0.02790182 0.3808707 0.026080292
0.16583808 0.09100346 -0.03568307 -0.08761225 -0.10731951 -0.051267676 0.09351815 -0.13815719
-0.08143794 0.012675494 -0.04976879 0.0051097386 0.19749185 -0.12845248 0.08892324 0.033998262
-0.015037448 -0.020897057 -0.113304675 0.25888133 -0.021130066 0.200146 0.058982413 0.120871454
0.07936202 -0.034858365 0.07488472 0.040659938 0.16867757 -0.07144738 -0.15070744 0.3584872
0.028287295 0.37195736 0.030656908 -0.055222787 0.19974184 0.042266764 -0.026750362 -0.088950366
0.29569915 0.052687053 0.31834716 -0.13502873 -0.2980061 0.08589417 -0.03734777 0.041554082
-0.037317116 -0.07670695 -0.21213765 0.1918763 -0.19168593 -0.08892758 0.38818818 0.052424047
-0.032464862 0.17914982 0.031169673 0.34787259 0.0020271232 0.01525504 0.054008454 0.052136473
0.020117093 0.17615193 -0.023125602 0.16535224 0.06775722 0.5951471 0.5145815 -0.029203143
0.02948198 0.09445924 0.05204487 0.015430284 -0.0337281 0.13310364 -0.027394626 -0.042946078
0.12521806 -0.11198664 0.18724857 0.23595172 0.08035006 0.18118708 -0.05648162 0.0189232
-0.19392124 -0.0267487 -0.071553946 0.12323296 0.17845802 -0.0539485 -0.013764158 0.009976103
0.22624117 0.116925776 -0.15953694 -0.070259005 -0.1602294 0.42604807 0.036650915 0.032065775
00000000: e654 90bd 4bf5 1e3e ac83 b13c 597c 613e
00000010: f692 b3be c438 c9be aea1 d0bc 6f89 013d
00000020: d2de 223c 770e 5b3c c147 a1be 396d e33c
00000030: a667 f63b cede 8bbd 0485 08be 3a1a 3abe
00000040: e716 5a3d 6800 08bd 5d03 03bd 04ef 86be
00000050: bfe3 cd3c ae16 403e 425a 3fbd 9e9e 2cbd
00000060: 1635 ebbc b460 d83d c3f7 a3bd 77ab 1a3d
00000070: 2323 f53d 8598 7f3c e1cb 89bd e046 533e
00000080: 9979 673e a168 80bd 9acc 143e 5aae 6d3e
00000090: 4ad8 c3bc ba9d 02bd 510a afbc f877 1e3d
000000a0: ac43 293d 7368 b03e a308 85ba 6868 b03d
000000b0: 3522 c0bc 9d8d 783d ec26 2bbd 1d6a 6ebd
000000c0: d888 873c 6140 5dbc 53c8 acbc cd13 3d3d
000000d0: ff4c 54bd fd50 4f3d 59d9 523d 7434 81bc
000000e0: 21f2 09be 4584 87be d336 2cbc 1baa 6a3e
000000f0: eb2f 0c3e f41f bebd 2e41 27be f568 8d3d
00000100: 0603 713c 90b4 e53c 6c20 6fbd 1f57 073e
00000110: 001c 24be c505 3b3d 8cfd 483d 9fcc 6b3e
00000120: 5733 bc3e a49f c8bc 63d1 afbc a462 493d
00000130: c836 673e 73ba b7bd 87c1 723c 0e90 91bd
00000140: 00d1 18be 7f68 2d3e 2a6e 97bd d127 90bc
00000150: 0ba8 bc3d 5c69 063e e88f a4bc 59c2 aa3e
00000160: a2c9 d4ba 4102 c83b e45b 533e 759c 9a3e
00000170: c8b4 9ebe 8a19 543d ff45 843e d75c 6c3e
00000180: f15e 863d 21ce ec3d ee3e bbbd 1e56 babd
00000190: 5143 6e3e dc7e ad3c 3dfb e23c 4a3d 4a3d
000001a0: f2af 1cbd beaf 953d f80e 66be f55a 243e
000001b0: e080 84bd 3518 3bbc da6d cd3d 0bb7 42bf
000001c0: c6e5 21bc 1169 973e 9786 253e f3ac 2bbf
000001d0: 8b08 7ebe e6e6 47bd 3b1d 27bd 6f91 d93d
000001e0: 555b 42bc c5c3 8bbe 496e 123c cb31 883e
000001f0: f98b dfbc 0ccb b23e 4538 923e ab9f 4ebd
00000200: 3a1a 1b3b f9cb d83d cc78 dbbe c061 b9be
00000210: 8d58 6c3d 28d9 c43d 7397 21bf 9e14 353e
00000220: 8af7 223e 6c02 0abc 8647 533c 1c03 133d
00000230: 9335 f43c f2af 403d 4106 2d3d 4451 8c3d
00000240: 09f6 cabc f08b c8bc 6346 153d fd68 1a3f
00000250: cb73 e8bc 5c92 e43c 7c01 c33e 56a6 d53c
00000260: 75d1 293e 0660 ba3d 6928 12bd 0d6e b3bd
00000270: 55ca dbbd 0efe 51bd 7286 bf3d 1479 0dbe
00000280: efc8 a6bd e0ac 4f3c 5cda 4bbd 986f a73b
00000290: 4e3b 4a3e 0c89 03be 631d b63d c341 0b3d
000002a0: a15f 76bc 4e30 abbc 480c e8bd 188c 843e
000002b0: f618 adbc 13f3 4c3e 8b97 713d 748b f73d
000002c0: 8e88 a23d a5c7 0ebd 295d 993d 098b 263d
000002d0: d0b9 2c3e 0153 92bd 0d53 1abe a28b b73e
000002e0: c2ba e73c 3271 be3e 3224 fb3c 4a31 62bd
000002f0: 2089 4c3e ea1f 2d3d 9323 dbbc 9c2b b6bd
00000300: e165 973e 61ce 573d 66fe a23e f944 0abe
00000310: 4194 98be 48e9 af3d faf9 18bd 9d34 2a3d
00000320: d5d9 18bd 8918 9dbd 9d3a 59be 397b 443e
00000330: 5149 44be aa1f b6bd 9ac0 c63e 99ba 563d
00000340: e0f9 04bd 0d73 373e 8b57 ff3c 5b1c b23e
00000350: 7cd9 043b 46f0 793c f837 5d3d 0e8d 553d
00000360: 9acc a43c 2c61 343e e771 bdbc 1952 293e
00000370: 4cc4 8a3d 8f5b 183f 9dbb 033f 6e3b efbc
00000380: 3184 f13c d973 c13d 002d 553d 4dcf 7c3c
00000390: 7a26 0abd 524c 083e b26a e0bc 3ae8 2fbd
000003a0: 2a39 003e 4059 e5bd 17be 3f3e 549d 713e
000003b0: 928e a43d 1b89 393e 4559 67bd d404 9b3c
000003c0: 4a93 46be 1720 dbbc e08a 92bd 9061 fc3d
000003d0: b3bd 363e 1af9 5cbd 1083 61bc cf72 233c
000003e0: c4ab 673e c876 ef3d a75d 23be f4e3 8fbd
000003f0: 2d13 24be f922 da3e 451f 163d 6757 033d

layer_5.bias f4 [128]
0.19947106 -0.41510707 -0.3242389 -0.31219813 -0.10968857 -0.07780895 -0.19096008 -0.8145567
-0.11759762 -0.071088314 -0.0001790899 -0.08775024 -0.09499582 -0.03126506 -0.052379847 -0.11134417
-0.10226823 -0.105787896 -0.07093025 0.08649462 0.08835499 -0.0882343 -0.58353376 0.03417271
-0.030132612 -0.080696486 -0.70329154 -0.06460605 -0.31701073 -0.09200103 -0.1708952 -0.2641251
-0.019387878 -0.029109547 -0.06941894 0.10432675 -0.50247324 -0.34306088 0.024542809 -0.00559681
-0.066421516 -0.0065782373 -0.08109159 -0.0030464593 -0.26222393 0.122990854 -0.5682091 -0.21920884
-0.5300062 0.013585168 -0.5539428 -0.43272573 -0.44299683 -0.08491478 -0.5861056 -0.117634945
-0.3092821 -0.48200065 -0.099334486 -0.13583721 -0.37887308 -0.2065782 -0.05216141 0.090358846
-0.14233527 0.044798087 -0.031055054 -0.14050382 -0.47039273 0.1799967 -0.272465 -0.04689868
0.26907712 -0.11693627 -0.62955785 -0.6343106 -0.41810706 -0.1071345 -0.12370051 0.04729469
-0.10262144 -0.030613886 -0.30709645 -0.67297876 -0.109179795 -0.12575686 -0.05619717 -0.37090394
-0.4817957 -0.2678806 -0.122610696 -0.038192313 -0.09061604 -0.45102578 -0.02174926 -0.4981453
-0.071363576 -0.06938529 -0.09919532 -0.13924466 -0.11720803 -0.40605623 -0.17931077 -0.19746052
-0.021554355 -0.01829401 -0.19286397 -0.04570066 -0.021561336 -0.29267257 -0.044213615 -0.19398972
0.14694317 -0.10289401 -0.27254826 0.03775513 -0.3097984 -0.06303729 -0.44680315 -0.25428733
-0.70137095 -0.19715974 -0.017378384 -0.26536632 -0.10537403 -0.18983206 -0.05485986 -0.18081468
00000000: 2442 4c3e ea88 d4be a402 a6be 6fd8 9fbe
00000010: 67a4 e0bd 4c5a 9fbd 0a8b 43be ca86 50bf
00000020: 05d7 f0bd c096 91bd 14ca 3bb9 66b6 b3bd
00000030: 2b8d c2bd cb0f 00bd 408c 56bd 6a08 e4bd
00000040: 0172 d1bd 53a7 d8bd e143 91bd 1724 b13d
00000050: 76f3 b43d 2fb4 b4bd 7862 15bf aff8 0b3d
00000060: abd8 f6bc 3344 a5bd ea0a 34bf 2d50 84bd
00000070: 3b4f a2be 096b bcbd 27ff 2ebe 683b 87be
00000080: 54d3 9ebc 2577 eebc 842b 8ebd 43a9 d53d
00000090: 16a2 00bf ada5 afbe 000e c93c 7265 b7bb
000000a0: 0108 88bd 418e d7bb 5913 a6bd 1ba7 47bb
000000b0: 3742 86be a1e2 fb3d 2776 11bf 4878 60be
000000c0: 7cae 07bf 5394 5e3c 32cf 0dbf 3a8e ddbe
000000d0: 7bd0 e2be cde7 adbd 040b 16bf 97ea f0bd
000000e0: 395a 9ebe cac8 f6be e16f cbbd e918 0bbe
000000f0: a7fb c1be 3c89 53be 34a7 55bd 0f0e b93d
00000100: 56c0 11be 337e 373d 2b67 febc 3ce0 0fbe
00000110: 51d7 f0be 0e51 383e 8880 8bbe d518 40bd
00000120: 7ac4 893e 487c efbd b42a 21bf 2e62 22bf
00000130: 2112 d6be 5569 dbbd b156 fdbd 14b8 413d
00000140: 312b d2bd f9c9 fabc bf3b 9dbe 5648 2cbf
00000150: a899 dfbd 68c6 00be 012f 66bd 1fe7 bdbe
00000160: edad f6be a527 89be 511b fbbd 8b6f 1cbd
00000170: e794 b9bd daec e6be 812b b2bc e70c ffbe
00000180: 1127 92bd e019 8ebd ea26 cbbd 2796 0ebe
00000190: c30a f0bd 9ae6 cfbe 3e9d 37be 1733 4abe
000001a0: c292 b0bc 52dd 95bc 227e 45be 9e30 3bbd
000001b0: 66a1 b0bc 2ed9 95be 5619 35bd 3ea5 46be
000001c0: 4578 163e 18ba d2bd 728b 8bbe 20a5 1a3d
000001d0: e59d 9ebe b219 81bd 62c3 e4be f331 82be
000001e0: 0c8d 33bf 3ee4 49be 1d5d 8ebc 18de 87be
000001f0: 57ce d7bd 5663 42be bcb4 60bd 7c27 39be
